best.pth (torch, 39530 bytes, 6 tensors)

layer1.weight f4 [64, 32]
0	0xbe5530b8	-0.20819366
1	0x3e7bd5be	0.24593255
2	0xbe7500a1	-0.23926021
3	0x3edf99a2	0.436719
4	0xbe9dc408	-0.30813622
5	0xbd2b7ad3	-0.04186518
6	0xbe3024e1	-0.17201568
7	0x3e0c7e96	0.13720164
8	0x3e3a3317	0.18183552
9	0x3f4f15b0	0.8089247
10	0x3f1f0c18	0.6212783
11	0x3f74a035	0.95556957
12	0xbc58833c	-0.013214882
13	0xbec3add8	-0.3821857
14	0x3bda4238	0.006660726
15	0x3e064dd8	0.13115633
16	0x3dd7398d	0.10509024
17	0xbeab78b5	-0.3349053
18	0xbe3cfd6f	-0.18456052
19	0xbdef730e	-0.11691867
20	0xbe89c538	-0.26908278
21	0x3e2130d9	0.1574129
22	0x3e07076c	0.13186425
23	0xbe42dcef	-0.19029592
24	0xbda4d874	-0.08049098
25	0x3e6a7cde	0.22899196
26	0x3e6e9efd	0.23302837
27	0xbe6a2674	-0.22866231
28	0x3a748f67	0.000932923
29	0xbecf0a87	-0.4043772
30	0x3e789393	0.24275045
31	0x3d57413d	0.05255245
32	0x3e6fffba	0.23437396
33	0x3df1f238	0.11813778
34	0xbc51c3f5	-0.012803067
35	0xbe169a1c	-0.14707226
36	0x3e690e75	0.22759421
37	0x3eb5ffa4	0.355466
38	0xbe9f3123	-0.31092176
39	0xbe9dc57b	-0.30814728
40	0xbeac61c8	-0.3366835
41	0x3f02cd4f	0.51094526
42	0x3e985cc0	0.29758263
43	0x3eb1a1cf	0.34693763
44	0xbe85a71f	-0.26104066
45	0x3e927bd5	0.286101
46	0x3e213696	0.15743479
47	0x3ece2868	0.40265203
48	0x3f0dfbb4	0.55462193
49	0xbe30f05c	-0.1727919
50	0xbe7f98c9	-0.24960627
51	0x3e1ae915	0.15127976
52	0xbd2b8041	-0.04187036
53	0x3e21cc1f	0.15800522
54	0x3e8d8862	0.27643114
55	0x3e2de3bf	0.1698141
56	0xbd9befe4	-0.07614115
57	0xbe508394	-0.20362693
58	0x3e54e04e	0.2078869
59	0xbd0d42b3	-0.034487437
60	0xbe8f7a3f	-0.28022954
61	0xbf1f79e0	-0.6229534
62	0xbdf4cc70	-0.11953056
63	0xbe73c7b6	-0.23806652
64	0xbe606d7b	-0.21916763
65	0xbd95eced	-0.07320581
66	0x3e4f6f3b	0.20257275
67	0x3e2e64a7	0.17030583
68	0xbd126bf2	-0.035747476
69	0xbcb260ee	-0.021774735
70	0x3eb3f0ce	0.35144657
71	0xbd171574	-0.036885694
72	0xbeb110b8	-0.34583068
73	0x3dd7a8bc	0.105302304
74	0xbdb8520d	-0.09000025
75	0xbe20b469	-0.15693821
76	0xbdf84796	-0.12123029
77	0x3f1222a5	0.57084113
78	0xbeb95ab5	-0.36202016
79	0x3f13656b	0.57576627
80	0x3de9d24a	0.114170626
81	0x3e4ae462	0.19813684
82	0xbf0da423	-0.5532858
83	0x3f2e1234	0.67996526
84	0xbdbee572	-0.09321107
85	0x3e7a4cb7	0.24443327
86	0x3edbef98	0.42956233
87	0x3d811463	0.063027166
88	0xbe92fa1e	-0.2870645
89	0xbec69ef2	-0.3879314
90	0x3e0a2363	0.13490061
91	0xbdb4e2b8	-0.08832306
92	0x3dc2c1a9	0.09509594
93	0x3e937024	0.28796494
94	0xbe16f0f0	-0.14740348
95	0x3e793846	0.24337873
96	0xbdb9ab45	-0.0906587
97	0x3dc3ce09	0.095607825
98	0xbe6c29b9	-0.23062791
99	0x3e1962af	0.14979051
100	0xbed87b51	-0.42281583
101	0x3c967aa7	0.018369032
102	0xbea4a335	-0.32155767
103	0x3e924068	0.28564763
104	0x3b5f1495	0.0034039367
105	0xbe42dcfb	-0.1902961
106	0x3d0d1a6b	0.034449022
107	0xbd363989	-0.044488464
108	0x3ee8ada4	0.45444977
109	0xbf0fdd3c	-0.5619695
110	0x3e8ec4bd	0.27884474
111	0xbe4892e1	-0.1958728
112	0x3eb2c5f1	0.34916642
113	0xbed37c25	-0.41305652
114	0x3c5edeb9	0.013602906
115	0xbed0b794	-0.4076506
116	0x3eeb6601	0.4597626
117	0x3e1cc356	0.1530889
118	0x3f1280b7	0.57227653
119	0x3ece9912	0.40351158
120	0x3f1b213b	0.6059758
121	0x3cdcf44b	0.026971957
122	0xbde5b002	-0.112152115
123	0xbe44b43b	-0.19209377
124	0x3db462e9	0.08807928
125	0x3dc2fb1e	0.09520553
126	0xbe83db11	-0.25753072
127	0x3decb728	0.11558372
128	0x3d4df328	0.05028072
129	0x3e12cc80	0.14335823
130	0xbe502b94	-0.20329124
131	0xbe8e44c7	-0.27786848
132	0x3ec15ec0	0.377676
133	0xbd08ad35	-0.033368308
134	0x3ead08ce	0.3379578
135	0x3c812067	0.015762521
136	0x3dd33d10	0.10314381
137	0xbf39cdb7	-0.7257952
138	0xbd66d5bf	-0.056356188
139	0xbf096048	-0.5366254
140	0xbec00eae	-0.375112
141	0x3ddcf268	0.10788423
142	0x3ce0cbda	0.027440954
143	0x3dcc53bb	0.09976908
144	0xbeb8a318	-0.3606193
145	0x3f080a05	0.5314029
146	0x3e12edaf	0.14348482
147	0x3e917eec	0.28417146
148	0x3e226ea6	0.15862522
149	0x3e6640ab	0.22485606
150	0xbe52474b	-0.20535009
151	0x3d9e077a	0.0771627
152	0x3d78e88c	0.06076865
153	0x3f1813d4	0.59405255
154	0xbe8c7de2	-0.2743979
155	0x3f139307	0.5764622
156	0xbe302414	-0.17201263
157	0xbd312346	-0.04324653
158	0x3eb1f31c	0.3475579
159	0xbeae6750	-0.34063196
160	0x3e92a467	0.28641054
161	0xbe6df3b4	-0.23237497
162	0xbccd9e19	-0.0250998
163	0xbcbbe07a	-0.022934187
164	0x3f17b40f	0.5925912
165	0xbcb96d09	-0.022635
166	0x3d8bfb5f	0.068350546
167	0x3f1071c0	0.5642357
168	0xbdd1f04f	-0.10250913
169	0x3e3163d2	0.17323235
170	0xbd817271	-0.06320656
171	0x3e329125	0.1743818
172	0xbe154266	-0.1457611
173	0xbec6000f	-0.3867192
174	0xbe4f8ccb	-0.20268552
175	0xbce431cf	-0.027855782
176	0x3df83f0c	0.121214
177	0xbc5b77e7	-0.013395286
178	0xbe7a0f1e	-0.24419829
179	0x3e62d56c	0.22151726
180	0x3da063f5	0.07831565
181	0x3e9531ea	0.29139644
182	0x3e5ea117	0.21741138
183	0x3ee273d6	0.44229
184	0xbe99c06b	-0.30029616
185	0x3edd5465	0.4322845
186	0xbe1de735	-0.1542023
187	0x3eb8e1b5	0.361097
188	0xbe6b0918	-0.22952688
189	0x3eb8dfb6	0.36108178
190	0x3c6e2085	0.01453412
191	0x3e8451e8	0.2584374
192	0xbd05bd7d	-0.032651413
193	0x3d94ca63	0.07265165
194	0xbd6d4290	-0.057924807
195	0xbdabe715	-0.08393685
196	0xbd8d466b	-0.06898197
197	0xbbb53d6a	-0.005531003
198	0xbd38e6c3	-0.045141947
199	0x3eb1877c	0.3467368
200	0xbe2ac549	-0.16676821
201	0xbea664f6	-0.32498902
202	0x3e230c53	0.1592267
203	0xbdd4ed39	-0.10396809
204	0xbe3c694c	-0.18399543
205	0x3ba87cd2	0.005141833
206	0x3dc9a89a	0.09846611
207	0x3e72a042	0.23693946
208	0xbd0559d4	-0.03255637
209	0x3f4ef504	0.80842614
210	0x3e86d677	0.263355
211	0x3ec22d0a	0.37924987
212	0x3de9221a	0.113834575
213	0xbf3573e0	-0.70879936
214	0x3d98f57e	0.07468699
215	0xbf29f81f	-0.6639423
216	0x3e7ee54a	0.24892154
217	0x3f1c9fc5	0.6118129
218	0xbed2eae5	-0.41194835
219	0x3efd0fe9	0.494262
220	0x3b2e9275	0.0026637588
221	0x3e83cf2f	0.25744006
222	0xbf10b026	-0.5651878
223	0x3e3fb3ab	0.18720882
224	0x3cb196b0	0.021678299
225	0xbb682e57	-0.0035428011
226	0xbcd812e3	-0.026376193
227	0x3ec8e59a	0.39237672
228	0xbe4c891c	-0.19974178
229	0x3eee7150	0.46570826
230	0x39e2746e	0.00043192826
231	0x3e4ee673	0.20205097
232	0xbe0d17c3	-0.13778596
233	0x3f3627ee	0.7115468
234	0x3e5f39db	0.21799414
235	0x3f6f87c1	0.9356652
236	0xbe96bf94	-0.29443038
237	0x3e724726	0.23659953
238	0xbdafef1f	-0.085905306
239	0x3d89f09d	0.067353465
240	0x3e4c6c8b	0.19963281
241	0xbe282be1	-0.16422988
242	0x3dfd0f9b	0.12356492
243	0x3e3fe3fe	0.18739316
244	0xbdd99732	-0.10624541
245	0xbea346bd	-0.31889907
246	0x3ebfb36e	0.3744158
247	0xbee30500	-0.44339752
248	0x3d966650	0.07343733
249	0xbe027f2c	-0.12743825
250	0x3e6191b8	0.22028244
251	0xbeba29c6	-0.36359996
252	0x3e8e20ad	0.27759305
253	0x3c93fa83	0.01806379
254	0xbd833fb4	-0.06408635
255	0xbcff9500	-0.031198978

layer1.bias f4 [64]
0	0xbea0bd5c	-0.3139447
1	0x3dcfb0e5	0.10141162
2	0xbe62f9f6	-0.22165665
3	0xbe77f5c1	-0.24214841
4	0xbe535036	-0.20636067
5	0xbf18d542	-0.59700406
6	0xbe54052f	-0.20705102
7	0xbe0560a0	-0.13025141
8	0x3e41493b	0.18875591
9	0xbde448a6	-0.11146669
10	0x3d80fccd	0.06298218
11	0xbc9ddfc1	-0.019271733
12	0xbeb19710	-0.34685564
13	0xbe6067c9	-0.21914591
14	0xbf13727a	-0.5759655
15	0xbe924cb4	-0.28574145
16	0xbee6e546	-0.45096797
17	0xbe206bd4	-0.15666133
18	0x3dc59989	0.09648425
19	0x3e8524a5	0.2600452
20	0xbe296167	-0.16541062
21	0xbd217367	-0.039416697
22	0x3cf431f4	0.029808976
23	0x3ea43d6d	0.32078114
24	0x3ced57b6	0.028972488
25	0x3e6ec1a8	0.23316061
26	0xbec6eb27	-0.38851282
27	0x3f535558	0.825521
28	0xbcd49fcc	-0.025955103
29	0xbe80bc5f	-0.25143716
30	0x3dfad4f8	0.12247652
31	0xbe44d249	-0.19220842
32	0xbed10558	-0.4082439
33	0xbf0fdfdc	-0.5620096
34	0x3de203a3	0.1103585
35	0x3e87ac3b	0.2649859
36	0xbd54b3d6	-0.051929317
37	0x3c615646	0.013753479
38	0xbd44ec73	-0.048077058
39	0xbf313a97	-0.69230026
40	0x3d96269c	0.07331583
41	0xbe8271fc	-0.25477588
42	0x3ef0cd84	0.47031796
43	0x3dd0370b	0.101667486
44	0x3f03b6f6	0.5145105
45	0x3d435daa	0.047696747
46	0xbe5d17c3	-0.21591096
47	0xbedb0c77	-0.42782947
48	0xbe0d3ee7	-0.13793527
49	0x3e645a47	0.22300063
50	0x3ebfba70	0.37446928
51	0x3f50a036	0.8149446
52	0xbf04d260	-0.51883507
53	0xbe8920f9	-0.2678297
54	0xbf0166d6	-0.5054754
55	0xbe6bf3ec	-0.23042268
56	0xbd8e5476	-0.069497034
57	0x3ddfd119	0.10928554
58	0xbf2b052a	-0.66804755
59	0xbebc0f57	-0.36730453
60	0xbf189364	-0.595999
61	0xbbab53bd	-0.0052284882
62	0x3d72675b	0.0591806
63	0x3ea88459	0.32913473

layer2.weight f4 [64, 64]
0	0x3e9116bd	0.2833766
1	0x3c20aa8f	0.009806289
2	0x3d6a3647	0.05718067
3	0xbe5d2cea	-0.21599165
4	0x3d5ab946	0.053399347
5	0xbda15f68	-0.078795254
6	0x3f2143c8	0.6299405
7	0x3f126ff2	0.57202065
8	0x3f2b309d	0.66871053
9	0xbe942cbe	-0.28940386
10	0x3f0763a0	0.5288639
11	0x3f132ff0	0.5749502
12	0x3d82fb37	0.06395572
13	0x3e6ee451	0.23329283
14	0x3e075d12	0.13219097
15	0x3e9491f1	0.29017594
16	0xbd14d60b	-0.03633694
17	0xbd78cd87	-0.06074288
18	0x3d71e1cb	0.059053224
19	0x3f0862ca	0.5327574
20	0x3dd662e7	0.10468083
21	0xbe1e5236	-0.15461048
22	0x3cdb0b1e	0.0267387
23	0x3e057796	0.130339
24	0xbcb6188b	-0.0222285
25	0x3eccc0e9	0.3999093
26	0x3db3f4cb	0.08786925
27	0x3ef02009	0.4689944
28	0x3ea7dd9e	0.32786268
29	0xbecb9181	-0.39759448
30	0x3ea14426	0.31497306
31	0x3b8eb565	0.00435512
32	0xbe239b80	-0.15977287
33	0x3edb4fbf	0.4283428
34	0x3efbb638	0.4916246
35	0x3f273379	0.65312916
36	0x3e405db3	0.18785743
37	0x3eae5561	0.34049514
38	0xbe1e1b9e	-0.15440223
39	0xbe96a5d7	-0.294234
40	0xbf5bb9f6	-0.8583063
41	0x3d6e46d9	0.058173034
42	0xbe864f10	-0.26232195
43	0x3ebd1d8e	0.3693661
44	0x3effaa43	0.49934587
45	0x3f4b813a	0.7949406
46	0x3e6fbbd0	0.23411489
47	0x3eba9f98	0.36449885
48	0x3df52cb0	0.11971414
49	0x3f11d733	0.5696899
50	0x3eb25836	0.34832925
51	0xbe9baa7b	-0.30403504
52	0x3e85a49f	0.26102158
53	0x3c761cf8	0.015021555
54	0x3f094500	0.5362091
55	0xbe81f0f6	-0.2537915
56	0xbd0ac0da	-0.033875324
57	0x3e1434e8	0.14473307
58	0xbb475e0f	-0.0030421054
59	0x3eaea2b5	0.3410851
60	0x3e42c7d2	0.19021538
61	0xbec2d970	-0.38056517
62	0x3d6368ee	0.05551999
63	0xbe8fd67f	-0.28093335
64	0xbeabafc6	-0.33532542
65	0xbe74ee74	-0.23919088
66	0x3e1b8ecb	0.1519119
67	0x3d78700d	0.060653735
68	0x3ec0d945	0.37665763
69	0x3ea4cf21	0.32189277
70	0x3e02a9f4	0.12760144
71	0x3e12e526	0.14345226
72	0xbe84aef4	-0.2591473
73	0x3e33c0f6	0.17554078
74	0x3e86f6d3	0.26360187
75	0xbd63184e	-0.0554431
76	0x3dfa504e	0.12222348
77	0xbdb4fbd0	-0.08837092
78	0x3e940389	0.28908947
79	0x3dec4ea7	0.11538439
80	0x3f0643af	0.52447027
81	0xbec1de24	-0.37864792
82	0xbd957a06	-0.07298665
83	0xbee75e5e	-0.45189184
84	0x3e40cc33	0.18827896
85	0x3ea64dbc	0.32481182
86	0xbdc9420c	-0.098270506
87	0xbb13b3a4	-0.0022537494
88	0x3e1a238e	0.15052626
89	0x3e3fdc83	0.18736462
90	0x3ccfab28	0.025350168
91	0xbeb24e56	-0.3482539
92	0x3e02e5bf	0.12782954
93	0x3e1cc1e6	0.15308341
94	0x3dcbc150	0.09948981
95	0x3c54f595	0.012998004
96	0x3e25622d	0.16150732
97	0x3ea864cd	0.32889405
98	0xbdb699f8	-0.08916086
99	0x3dfa77a2	0.122298494
100	0x3be7b062	0.007070587
101	0xbdf8d278	-0.12149519
102	0xbe47180a	-0.19442764
103	0x3f009e73	0.50241774
104	0x3dcbc4d9	0.09949655
105	0x3ee55ebe	0.44798845
106	0x3df6787b	0.120346986
107	0xbe223b61	-0.15842964
108	0x3e7cee51	0.24700285
109	0xbecff75d	-0.4061841
110	0x3e97645e	0.29568762
111	0x3d8e8b7d	0.06960199
112	0x3e86b3cb	0.26309046
113	0xbe63e903	-0.22256856
114	0x3dd4ef77	0.10397237
115	0xbda008b2	-0.078141585
116	0x3de3bbb7	0.11119788
117	0xbe50568a	-0.20345512
118	0xbd5dd9d9	-0.054162834
119	0x3ebbb091	0.36658147
120	0x3d876e3a	0.06612821
121	0x3befffe2	0.007324205
122	0x3f101abf	0.5629081
123	0xbf02f381	-0.5115281
124	0xbd092b8a	-0.033488788
125	0x3e0b30e9	0.13592876
126	0xbda22397	-0.079169445
127	0xbe12a298	-0.14319837
128	0x3f759025	0.9592307
129	0x3f03560f	0.5130319
130	0x3e0d302d	0.13787909
131	0x3e1f3e15	0.15551026
132	0xbe2117af	-0.15731691
133	0x3d934e24	0.071926385
134	0x3df00842	0.11720325
135	0x3ed4924e	0.41517872
136	0xbef26c18	-0.47348094
137	0x3c9e6eb6	0.0193399
138	0x3e9e5399	0.30923155
139	0x3b8e0e5d	0.0043352083
140	0x3db9e7e4	0.09077433
141	0x3e983bf5	0.29733244
142	0x3d6770f8	0.05650422
143	0x3eaec109	0.3413165
144	0x3e41af9b	0.18914644
145	0x3f46fd63	0.7773039
146	0x3b073256	0.0020629368
147	0xbc2580c0	-0.010101497
148	0x3e46589d	0.19369741
149	0xbdd66fbb	-0.1047053
150	0xbe170095	-0.14746316
151	0x3dc7190a	0.09721573
152	0xb9142c91	-0.00014130982
153	0x3de39b92	0.11113657
154	0x3ee0289f	0.4378099
155	0xbdb0d5cf	-0.08634531
156	0xbde67936	-0.11253588
157	0x3e34e954	0.17667133
158	0x3df8751f	0.12131714
159	0x3e8721c8	0.2639296
160	0x3e248466	0.16066131
161	0x3e14fac4	0.14548784
162	0x3e9d268a	0.30693465
163	0x3e527a8f	0.20554565
164	0x3f310a28	0.6915612
165	0xbf1ed665	-0.6204589
166	0xbda0d390	-0.07852852
167	0x3e4248e9	0.18973126
168	0xbdfe46a5	-0.12415818
169	0x3addab90	0.0016912092
170	0xbf123829	-0.57116944
171	0x3f0da4ac	0.55329394
172	0xbe98bab5	-0.29829946
173	0xbf178714	-0.5919049
174	0x3d354022	0.044250615
175	0x3ed82cba	0.42221624
176	0x3d39d85c	0.045372352
177	0xbda22b94	-0.07918468
178	0xbe8ff908	-0.28119683
179	0xbf4420b5	-0.76612407
180	0xbb893822	-0.0041875998
181	0x3eca6f32	0.3953796
182	0x3f7940e0	0.97364616
183	0x3e527d13	0.20555525
184	0x3d15c21b	0.036562067
185	0x3f0c94a4	0.5491431
186	0x3ebfd355	0.3746592
187	0xbdc66821	-0.0968783
188	0x3eb6e86b	0.35724196
189	0xbe118146	-0.1420947
190	0xbe699666	-0.22811279
191	0xbe1177b8	-0.14205825
192	0xbf861504	-1.0475163
193	0x3e02aa76	0.12760338
194	0x3e3da203	0.18518834
195	0xbe0a9e93	-0.13537054
196	0x3ee65bb6	0.44991845
197	0x3be81e00	0.0070836544
198	0x3e1491e8	0.14508784
199	0xbe4479c9	-0.19187082
200	0x3d2f35ef	0.042776044
201	0x3e8fa303	0.28054056
202	0xbe4a7261	-0.19770195
203	0x3ea02e8f	0.3128552
204	0x3c36f4c4	0.011166755
205	0x3e797774	0.24361974
206	0xbe9c6795	-0.30547777
207	0x3dba48f8	0.09095949
208	0x3e315de7	0.17320977
209	0x3d71f1bf	0.059068438
210	0x3ed79d64	0.42112267
211	0x3e3e9132	0.18610075
212	0x3e046a6f	0.12931226
213	0x3d675cc2	0.056484945
214	0xbdedc795	-0.11610333
215	0x3e5ef2c5	0.21772297
216	0xbcf275c4	-0.02959717
217	0x3d33c383	0.043887626
218	0xbd33c6db	-0.043890815
219	0x3ed29e05	0.41136184
220	0x3efe6a5b	0.49690518
221	0xbe8410f2	-0.25794178
222	0x3ea13af5	0.31490293
223	0x3e395bf3	0.18101482
224	0x3e1376da	0.14400807
225	0x3d9f9a1a	0.077930644
226	0x3ebaad6c	0.36460435
227	0x3ef4a738	0.47783828
228	0x3da98ef9	0.08279223
229	0x3e895d43	0.26828966
230	0x3d4385c4	0.04773499
231	0xbee007ac	-0.43755853
232	0xbe320cf6	-0.17387757
233	0x3da372a5	0.07980851
234	0x3d01eb2d	0.03171842
235	0x3b389e11	0.0028170387
236	0x3e165bb2	0.14683416
237	0x3ccc7e8f	0.024962692
238	0x3e909e9c	0.2824601
239	0x3da30e92	0.079617634
240	0x3c5c4846	0.013444966
241	0x3f02b816	0.5106214
242	0x3f1490c8	0.5803342
243	0x3f966188	1.1748514
244	0x3e202c30	0.15641856
245	0x3f1f1dd8	0.6215491
246	0xbf16e579	-0.589439
247	0xbe1a028c	-0.15040034
248	0x3e0e49a6	0.13895282
249	0xbe8203fd	-0.25393668
250	0xbdbc6c93	-0.092003964
251	0x3d58aac3	0.052897226
252	0x3cdd5d9c	0.027022175
253	0x3e8e678c	0.27813375
254	0x3e90ec21	0.28305152
255	0xbde7fd68	-0.1132763

layer2.bias f4 [64]
0	0xbe0487d3	-0.12942438
1	0x3de52c5f	0.11190104
2	0xbe51dee1	-0.20495178
3	0x3e89c8ff	0.2691116
4	0xbe4e8f85	-0.20171936
5	0xbcf771a7	-0.03020556
6	0x3c3ba5c3	0.011453095
7	0xbe1b330e	-0.15156195
8	0x3dfa067c	0.12208268
9	0xbe171525	-0.1475416
10	0x3e1267b9	0.1429738
11	0xbe2aa14e	-0.16663095
12	0xbeb49e6a	-0.3527711
13	0xbde6c34c	-0.11267719
14	0xbe77d516	-0.2420238
15	0xbe2e9e44	-0.17052561
16	0xbe988eff	-0.29796597
17	0x3eed7689	0.46379498
18	0xbdd3d0c4	-0.10342553
19	0xbe8549e7	-0.26032946
20	0xbe9e241d	-0.30886927
21	0x3ea65923	0.3248988
22	0xbe7efabc	-0.24900335
23	0xbdbf38b1	-0.09336985
24	0x3e56ea1f	0.20987748
25	0xbcea390b	-0.028591653
26	0x3e21641f	0.1576085
27	0x3ee0b43e	0.43887514
28	0xbed05a2f	-0.40693805
29	0x3eb98dcb	0.36240992
30	0xbb51c9e7	-0.0032011212
31	0x3e17f526	0.1483961
32	0x3e9a8e0f	0.30186507
33	0x3f3dc846	0.7413372
34	0xbb83c6b0	-0.004021488
35	0x3d6b51e7	0.057451155
36	0x3e12df8c	0.14343089
37	0x3ee8c1f8	0.45460486
38	0x3ecb2f6d	0.3968462
39	0x3ebf467e	0.3735847
40	0x3eb91703	0.3615037
41	0x3ea4b8a0	0.32172108
42	0x3eae5352	0.34047943
43	0xbe0af442	-0.1356974
44	0x3d2f6e06	0.042829536
45	0x3d824250	0.06360304
46	0xbc13a25b	-0.0090108765
47	0x3e2f1750	0.17098737
48	0x3d3a9f9f	0.045562383
49	0x3eabbe3e	0.3354358
50	0xbd05e215	-0.03268631
51	0x3e813ea5	0.25243106
52	0xbc2e6efe	-0.01064658
53	0x3da7d5f4	0.08195105
54	0x3ebd0d32	0.3692413
55	0x3e7f34fb	0.24922554
56	0x3e14b5fc	0.14522547
57	0x3de82914	0.1133596
58	0xbe1068ab	-0.14102428
59	0xbdd2ea67	-0.10298615
60	0xbc2de244	-0.010613028
61	0xbd0dd2da	-0.03462491
62	0x3e1f70d0	0.15570378
63	0x3e74be33	0.2390068

outlayer.weight f4 [47, 64]
0	0x3b36ba9d	0.0027882226
1	0xbeddf543	-0.43351182
2	0xbd69d739	-0.057090018
3	0x3de4fee6	0.111814305
4	0x3e43f6f1	0.1913717
5	0xbe8b1d95	-0.27171007
6	0xbe04d239	-0.12970819
7	0x3d54b808	0.05193332
8	0xbe955517	-0.2916648
9	0x3d6d7c9a	0.057980157
10	0xbd12edf8	-0.035871476
11	0x3e0a9415	0.13533051
12	0xbf935d2e	-1.1512811
13	0xbe84b82d	-0.25921765
14	0xbc8703fe	-0.016481396
15	0x3e3658ea	0.17807356
16	0x3ca62e1c	0.020285659
17	0xbf0d7681	-0.5525895
18	0x3db69419	0.08914966
19	0xbc6f53dd	-0.014607397
20	0xbf2e4cc6	-0.68085897
21	0x3d7312b1	0.059343997
22	0x3c059684	0.0081535615
23	0xbf863c4c	-1.0487151
24	0x3bea35f5	0.0071475455
25	0xbeccc123	-0.39991102
26	0xbd0fed2d	-0.035138298
27	0xbf12f15d	-0.5739954
28	0x3e5ef494	0.21772987
29	0xbcf5be47	-0.029997958
30	0xbc4fcfcd	-0.012683821
31	0xbe85f99d	-0.26167002
32	0xbe0cb7ed	-0.13742037
33	0x3f7479be	0.95498264
34	0x3d975328	0.07388908
35	0xbc8aa0a8	-0.01692231
36	0x3e7126ba	0.2354993
37	0xbd1c7193	-0.03819425
38	0x3c5e698c	0.013574969
39	0x3e678196	0.22608027
40	0xbe1a55d7	-0.15071808
41	0xbbadfbd6	-0.005309562
42	0x3d3ce681	0.046118263
43	0x3e8b3fae	0.2719702
44	0xbd9eb38c	-0.077490896
45	0x3e6f03a4	0.23341233
46	0xbf4590a9	-0.7717386
47	0xbe420abf	-0.18949412
48	0x3e5a9f79	0.21349896
49	0x3d19e4a2	0.037571557
50	0x3d99e829	0.07514984
51	0x3e2e682b	0.17031924
52	0xbf3e781d	-0.7440203
53	0xbeafc90e	-0.3433308
54	0x3daa99b7	0.083301
55	0xbdc62d15	-0.096765675
56	0x3d959dfc	0.07305524
57	0x3e9e1d03	0.3088151
58	0x3d841fdb	0.064513884
59	0x3e4bbf90	0.19897294
60	0x3c8a9816	0.016918223
61	0xbde05d85	-0.109553374
62	0x3e8090af	0.25110385
63	0x3c85ab1f	0.016316948
64	0x3d0b587e	0.03401994
65	0x3c04a71a	0.008096481
66	0x3e13963b	0.14412777
67	0x3d9c81ee	0.076419696
68	0x3d6b7012	0.057479925
69	0xbd5fc1a9	-0.054628048
70	0xbe76da43	-0.24106698
71	0x3d2ef735	0.042716224
72	0x3ddbe980	0.10737896
73	0x3e2ea53c	0.1705522
74	0xbf2a3825	-0.6649192
75	0x3dd58eb4	0.10427609
76	0xbe8928bf	-0.267889
77	0xbdde407f	-0.108521454
78	0x3d319c3f	0.0433619
79	0x3cf39b0d	0.02973702
80	0xbddf4940	-0.10902643
81	0xbc9c57d7	-0.019084854
82	0x3e501084	0.203188
83	0x3e182697	0.14858471
84	0xbf867a42	-1.050606
85	0xbeed91d0	-0.4640031
86	0xbd5f8267	-0.05456772
87	0xbfadab02	-1.3567812
88	0xbdcd089c	-0.10011408
89	0xbef38012	-0.47558647
90	0x3d471da3	0.04861225
91	0xbd23fd2e	-0.040036373
92	0x3d8efefc	0.06982228
93	0x3d28322f	0.041063484
94	0xbeddf339	-0.43349627
95	0xbe1694f4	-0.14705259
96	0x3e62903b	0.22125332
97	0x3f739ec6	0.95164144
98	0xbf3343ed	-0.7002552
99	0xbf06e80d	-0.5269783
100	0x3e2f9b48	0.17149079
101	0x3da59312	0.08084692
102	0x3e1e1010	0.15435815
103	0xbd6c4b57	-0.057689037
104	0x3e2fcc46	0.17167768
105	0x3d976def	0.07394015
106	0xbf1dbb99	-0.61614376
107	0x3ba0e2fa	0.00490987
108	0x3d09e189	0.033662353
109	0xbe1d3753	-0.15353136
110	0xbedfb4c4	-0.436926
111	0xbbe86dd3	-0.00709317
112	0x3e57a5cc	0.2105934
113	0x3e52bae8	0.20579112
114	0xbf3cae25	-0.73703223
115	0x3ddac5be	0.106822476
116	0xbe96a04d	-0.29419175
117	0xbe92ed63	-0.28696737
118	0x3df42f6b	0.11923107
119	0xbc054a02	-0.008135321
120	0x3e16d38c	0.14729136
121	0x3df1d32b	0.11807855
122	0xbd4c48ac	-0.049873993
123	0x3e95de2b	0.29271063
124	0xbda2c047	-0.0794683
125	0xbf3af02f	-0.7302274
126	0xbe2e093d	-0.16995712
127	0x3c89eee2	0.016837541
128	0xbec6338a	-0.38711196
129	0xbd4bfbad	-0.049800564
130	0x3e646617	0.22304569
131	0xbf74cdd5	-0.95626575
132	0x3db86bb5	0.090049185
133	0xbdfa83cf	-0.12232172
134	0xbe0d1a2b	-0.13779514
135	0xbc402c6f	-0.011729344
136	0x3d4a1426	0.04933562
137	0xbc16936c	-0.009190422
138	0x3baa69c9	0.005200599
139	0xbde9f82f	-0.114242904
140	0xbe74260a	-0.23842636
141	0xbe15c1fc	-0.1462478
142	0xbeea011f	-0.4570398
143	0xbedaef8c	-0.42760885
144	0xbc5199a9	-0.012792983
145	0x3d6a6e88	0.057234317
146	0x3d994ac3	0.07484963
147	0xbf3520a1	-0.7075291
148	0x3e5510fe	0.20807263
149	0xbe3b3cae	-0.18284866
150	0xbf5fc67e	-0.8741225
151	0x3ab7cbcc	0.0014022528
152	0xbe907836	-0.28216714
153	0x3ce227ee	0.02760693
154	0x3bc74ee9	0.006082405
155	0xbf5ee030	-0.8706083
156	0xbd9634af	-0.07334267
157	0xbf2d70bf	-0.6775016
158	0x3e120d09	0.14262785
159	0x3ddf19b7	0.108935766
160	0x3cb1e353	0.021714842
161	0xbec415b0	-0.38297796
162	0x3d44c39b	0.048038106
163	0x3d892a24	0.06697491
164	0x3d401085	0.046890754
165	0x3da80de0	0.082057714
166	0x3e339644	0.1753779
167	0xbe6d7018	-0.23187292
168	0xbf0dd64b	-0.5540511
169	0x3def8539	0.11695332
170	0x3e4487e1	0.19192459
171	0xbe440f3c	-0.19146436
172	0x3d5ee73c	0.05441974
173	0x3e2ad730	0.1668365
174	0x3d1e44ac	0.03863971
175	0x3d8318f9	0.064012475
176	0xbf54f7e3	-0.83190745
177	0xbdb1cb84	-0.08681396
178	0x3e87fbae	0.26559204
179	0xbe70829d	-0.23487325
180	0xbdaf24a2	-0.08551909
181	0xbe24f8f9	-0.161106
182	0xbe088bcf	-0.13334583
183	0x3d7d23a9	0.061801586
184	0x3d3b6d8d	0.045758773
185	0xbdb0c6d4	-0.086316735
186	0x3d1386d3	0.03601725
187	0xbd79ea6a	-0.06101457
188	0xbec182f8	-0.37795234
189	0x3e143409	0.14472975
190	0xbf59ef2d	-0.8513058
191	0x3e0e96c3	0.13924699
192	0xbef72cef	-0.4827647
193	0x3c3f58d1	0.01167889
194	0x3e235bae	0.15952942
195	0xbeed3317	-0.4632804
196	0xbe959812	-0.29217583
197	0x3e1d8368	0.15382159
198	0xbdc9d1e5	-0.09854487
199	0xbd90dbac	-0.07073149
200	0xbd1bcb96	-0.03803595
201	0xbcda14d6	-0.026621263
202	0x3e21433d	0.15748306
203	0xbe9d1eba	-0.30687505
204	0x3d4871f2	0.04893679
205	0xbe27da10	-0.16391778
206	0xbebacdcb	-0.36485133
207	0xbd3f1300	-0.04664898
208	0xbe9f3de4	-0.31101906
209	0xbd02dd5f	-0.031949397
210	0x3e92a5df	0.28642175
211	0xbf844603	-1.0333866
212	0xbd7391b2	-0.059465118
213	0xbed5f196	-0.41785878
214	0x3f33fd42	0.70308316
215	0x3e2b1379	0.16706647
216	0xbf2c1b3e	-0.6722907
217	0x3e61e0d6	0.22058424
218	0x3ecbd699	0.39812163
219	0xbe3b84fa	-0.18312445
220	0xbd104fe1	-0.03523243
221	0xbdf34066	-0.118775174
222	0x3e115f2a	0.14196458
223	0x3d0832e4	0.033251658
224	0x3dc15d36	0.09441607
225	0xbeb7ed8d	-0.35923424
226	0x3dc851b8	0.097812116
227	0x3e45204b	0.192506
228	0xbde821a0	-0.113345385
229	0x3c2ff23f	0.010738908
230	0xbe99b84e	-0.30023426
231	0xbdb0d171	-0.08633698
232	0xbe1ef11d	-0.15521665
233	0xbd38bde9	-0.045102987
234	0xbdf0eec0	-0.11764288
235	0xbe5117d1	-0.20419241
236	0x3d107e2e	0.035276584
237	0xbdf9c981	-0.12196637
238	0x3e677c7a	0.22606078
239	0xbe6d9108	-0.23199856
240	0x3e7f06a1	0.24904872
241	0x3c870025	0.016479561
242	0x3e7359aa	0.23764673
243	0x3d34905d	0.044082988
244	0x3e2db247	0.16962539
245	0x3de011b0	0.109408736
246	0x3db656d7	0.08903282
247	0xbd8c7170	-0.06857574
248	0xbdda6a27	-0.10664778
249	0xbe326dde	-0.17424724
250	0xbd34e21b	-0.044160943
251	0x3e2b6473	0.16737537
252	0xbe217918	-0.1576885
253	0x3e3c5dd0	0.18395162
254	0xbc944ef3	-0.018104052
255	0xbe711838	-0.23544395

outlayer.bias f4 [47]
0	0xbcd1e012	-0.02561954
1	0x3e89a63b	0.26884636
2	0x3e4e9313	0.20173292
3	0xbe457fef	-0.19287084
4	0x3e85c527	0.26126978
5	0xbd39de30	-0.04537791
6	0x3e8e5439	0.27798632
7	0xbd58060e	-0.05274015
8	0x3dc2aa91	0.09505189
9	0xbdbf9019	-0.09353656
10	0x3d9641f1	0.07336796
11	0x3c50b7ba	0.012739116
12	0x3a63d739	0.00086914335
13	0x3d43e216	0.047823034
14	0xbddb7de1	-0.10717369
15	0x3d260631	0.04053325
16	0x3dd994e4	0.10624102
17	0x3e63cb5c	0.22245544
18	0xbe94589c	-0.28973854
19	0x3c033293	0.008007663
20	0x3bab926b	0.0052359602
21	0xbcce1c97	-0.025160117
22	0xbb2d5e0f	-0.0026453768
23	0x3dd3217a	0.103091195
24	0xbe1963fe	-0.1497955
25	0x3d9fe90f	0.07808124
26	0xbe3acdda	-0.18242589
27	0xbcd3d018	-0.025856063
28	0xbe2d412c	-0.16919392
29	0xbe7a7d2b	-0.2446181
30	0xbd6a8ed8	-0.057265133
31	0xbd8a0121	-0.067384966
32	0xbd473bde	-0.04864108
33	0x3dd0fe59	0.10204763
34	0x3c9f12bb	0.019418111
35	0x3d937162	0.071993604
36	0xbe16a746	-0.14712247
37	0x3de2c40a	0.11072548
38	0x3e603cd5	0.21898206
39	0x3dbbc6d3	0.09168782
40	0x3e730bd1	0.23734976
41	0xbdaba75b	-0.0838153
42	0xbd2ba8fd	-0.041909207
43	0xbd353974	-0.044244245
44	0xba859905	-0.0010192698
45	0xbdee881a	-0.11647053
46	0xbdc99ce0	-0.09844375
